pytorch_maze_classifier/model.pth (torch, 702632 bytes, 8 tensors)

conv1.weight f4 [10, 3, 5, 5]
0.024083925 -0.07608637 -0.051805988 0.10111687 -0.1019146 -0.0968254 -0.037752714 -0.06581996
0.11817385 0.06773916 0.1186285 -0.025880434 0.08923551 -0.045993246 0.008943008 0.06937626
0.08225341 0.020928582 -0.04622937 0.087935984 -0.08343668 -0.041557323 -0.036376413 0.03899642
-0.02716021 0.081069805 0.041317876 0.11545758 0.08443569 0.091759935 -0.020240283 0.072223224
-0.111630924 -0.10213048 -0.06390656 -0.038016863 0.058714796 0.09440058 -0.059723586 0.07106416
-0.026786331 0.07590925 -0.008130076 0.01492851 -0.0920449 -0.08195253 -0.08307842 -0.08573869
-0.08920819 -0.10098091 0.082965165 0.027291628 -0.05338951 -0.010949394 -0.073946394 -0.10534186
-0.045927767 0.04714837 -0.046396267 -0.045679938 -0.050199658 -0.111475654 0.109300986 0.08429175
0.049247183 -0.0024283738 -0.025875686 -0.024449153 0.050650705 -0.04894564 0.04632246 -0.032877132
0.08089494 0.066527635 0.07982113 -0.026264902 -0.071432725 0.019172426 0.038731497 -0.03220583
-0.08685358 -0.04300074 0.041095104 -0.031127531 0.008938646 -0.018693494 -0.09813789 0.019919332
0.045092743 -0.024705559 0.049781844 0.10273794 -0.02824001 -0.07925173 -0.11513823 0.01305752
-0.060706448 0.08803238 -0.08557892 -0.07276232 -0.057663463 0.0061053536 -0.10401636 -0.10419212
0.06290632 -0.024008065 0.07307746 -0.03533937 -0.042466357 0.0981746 0.043011665 0.0034054273
0.100598216 0.08959716 0.095166095 -0.10244753 -0.013533113 -0.09634046 -0.10078056 -0.05710823
-0.051876433 -0.07057159 -0.0750293 -0.052457165 0.018679049 -0.109790415 0.11382415 0.114733346
-0.099234805 0.023576804 0.09152907 -0.0606515 0.110048614 0.009216509 0.00894034 0.01245466
0.08111445 -0.10282685 0.089125924 -0.077939026 -0.09997654 -0.046034154 -0.03137803 0.11245511
-0.09719909 0.024787039 0.10605802 0.0009971936 -0.10494054 -0.0082386695 0.023167087 0.053965602
-0.08613966 -0.10622418 0.0051698927 0.030992024 -0.0053970423 0.018141707 -0.05200743 -0.084797256
-0.04077122 0.08451738 -0.10525193 -0.0520846 0.04679909 0.018122379 -0.07427417 0.017279206
0.04196783 0.06293117 -0.10625724 -0.045330666 -0.082279846 0.013499056 -0.05499345 0.10650195
0.0150052365 0.050568342 0.035405584 0.053524096 -0.10771048 -0.09704318 0.07689063 0.04944035
-0.02158393 0.07636263 -0.036724117 0.08469445 0.0017864398 0.08703861 -0.07319001 0.05448565
-0.04982201 0.057424106 0.1009856 -0.05483312 0.10445419 0.10403322 -0.027542574 0.012945791
-0.06897066 0.02597906 0.031873394 0.08997137 0.025587164 0.11180008 -0.0011466534 0.11530555
-0.06969992 0.0013425271 -0.03434056 0.08118605 0.021473812 0.039630022 0.052243575 -0.11147509
0.08470341 -0.084822305 0.05048497 0.10396142 0.064145215 0.056425154 -0.053193692 0.0013222184
-0.055832677 -0.034850955 -0.053062692 -0.021021416 0.045939874 -0.027201675 -0.029075298 0.09289775
0.016838327 -0.09894822 -0.023424152 -0.06641523 0.025126528 -0.0928554 0.06452517 -0.0011012855
0.01338746 0.098607995 0.053140942 0.00552393 -0.05837268 0.08947019 -0.040256493 0.06707621
0.013632315 0.074963726 -0.07962938 -0.042543236 0.11937544 0.008973321 -0.04034545 0.07539955
00000000: a74b c53c 2cd3 9bbd 8432 54bd 5d16 cf3d
00000010: 9ab8 d0bd 654c c6bd 97a2 1abd 9dcc 86bd
00000020: 2205 f23d d4ba 8a3d 80f3 f23d 3403 d4bc
00000030: 1bc1 b63d 6a63 3cbd b285 123c 2415 8e3d
00000040: 7a74 a83d 6b72 ab3c 025b 3dbd c817 b43d
00000050: dae0 aabd 0338 2abd 6fff 14bd b6ba 1f3d
00000060: 177f debc ed07 a63d ef3c 293d 0675 ec3d
00000070: 9eec ac3d a2ec bb3d f3ce a5bc c5e9 933d
00000080: c19e e4bd c929 d1bd 71e1 82bd 92b7 1bbd
00000090: ed7e 703d 1755 c13d b8a0 74bd 168a 913d
000000a0: 026f dbbc 4f76 9b3d 0334 05bc b696 743c
000000b0: 0982 bcbd bad6 a7bd 0525 aabd c497 afbd
000000c0: c9b2 b6bd 14cf cebd a4e9 a93d b192 df3c
000000d0: f5ae 5abd 1665 33bc 3571 97bd 79bd d7bd
000000e0: c11e 3cbd a61e 413d 030a 3ebd e31a 3bbd
000000f0: 289e 4dbd 594d e4bd 32d9 df3d 27a1 ac3d
00000100: 6ab7 493d 5a25 1fbb 3ff9 d3bc 9749 c8bc
00000110: 1d77 4f3d 397b 48bd 9fbc 3d3d 2caa 06bd
00000120: 3fac a53d a43f 883d 4379 a33d 7e29 d7bc
00000130: 524b 92bd 7e0f 9d3c eba4 1e3d 43ea 03bd
00000140: 4ae0 b1bd 8b21 30bd 5753 283d 2aff febc
00000150: 6673 123c 1923 99bc 85fc c8bd de2d a33c
00000160: 2bb3 383d 5063 cabc 0ce8 4b3d 4568 d23d
00000170: 9857 e7bc bb4e a2bd 98cd ebbd 35ef 553c
00000180: 53a7 78bd 524a b43d 0044 afbd 6904 95bd
00000190: 8630 6cbd 6b0f c83b 8806 d5bd ae62 d5bd
000001a0: 07d5 803d 90ac c4bc a3a9 953d 04c0 10bd
000001b0: 34f1 2dbd c40f c93d 002d 303d 972d 5f3b
000001c0: 7006 ce3d b77e b73d 71e6 c23d 03d0 d1bd
000001d0: fdb9 5dbc 264e c5bd 0a66 cebd 52ea 69bd
000001e0: 627c 54bd d687 90bd f6a8 99bd 53dd 56bd
000001f0: ce04 993c ccd9 e0bd a31c e93d 51f9 ea3d
00000200: 9e3b cbbd 2424 c13c 9873 bb3d b56d 78bd
00000210: 2b61 e13d d700 173c 817a 123c a10e 4c3c
00000220: 551f a63d e296 d2bd a787 b63d 7f9e 9fbd
00000230: 80c0 ccbd 4f8e 3cbd 4086 00bd dd4e e63d
00000240: 5110 c7bd 300e cb3c f234 d93d 44b4 823a
00000250: 11eb d6bd 7cfb 06bc e7c8 bd3c 090b 5d3d
00000260: fd69 b0bd 108c d9bd 3468 a93b fce2 fd3c
00000270: acd9 b0bb eb9d 943c be05 55bd 2faa adbd
00000280: b9ff 26bd 7317 ad3d 538e d7bd a956 55bd
00000290: 67b0 3f3d 6275 943c 0e1d 98bd 1f8d 8d3c
000002a0: 76e6 2b3d 0fe2 803d 659d d9bd a6ac 39bd
000002b0: 5682 a8bd 252b 5d3c d040 61bd b21d da3d
000002c0: 86d8 753c c020 4f3d 7205 113d 153c 5b3d
000002d0: 5097 dcbd 93be c6bd d678 9d3d f781 4a3d
000002e0: c8d0 b0bc 0364 9c3d 076c 16bd 4974 ad3d
000002f0: f926 ea3a 4c41 b23d a5e4 95bd 582c 5f3d
00000300: 2a12 4cbd 8a35 6b3d 8ad1 ce3d b298 60bd
00000310: 14ec d53d 5e0f d53d f7a0 e1bc 951a 543c
00000320: 7d40 8dbd 0ad2 d43c ad8d 023d e942 b83d
00000330: 2c9c d13c 71f7 e43d 4e4b 96ba 5125 ec3d
00000340: d5be 8ebd bcf7 af3a b0a8 0cbd df44 a63d
00000350: d9e9 af3c 1753 223d 5cfd 553d 0d4d e4bd
00000360: fb78 ad3d 51b7 adbd 54c9 4e3d bae9 d43d
00000370: 915e 833d 101e 673d a1e1 59bd 4a4e ad3a
00000380: ceb0 64bd e0bf 0ebd 4458 59bd 1b35 acbc
00000390: 732b 3c3d 0cd6 debc 522f eebc 2d41 be3d
000003a0: 88f0 893c 5da5 cabd 02e4 bfbc b504 88bd
000003b0: 26d6 cd3c f92a bebd c625 843d 0259 90ba
000003c0: 1457 5b3c fdf2 c93d 51aa 593d 1502 b53b
000003d0: 3118 6fbd 263c b73d fee3 24bd 415f 893d
000003e0: 135a 5f3c 9586 993d ba14 a3bd d141 2ebd
000003f0: 1c7b f43d d604 133c 4541 25bd 146b 9a3d

conv1.bias f4 [10]
0.040486664 -0.033335008 0.052364517 0.041252933 -0.08317408 -0.040969703 0.046532217 -0.10120214
0.05849565 -0.0056589125
00000000: 58d5 253d 4a8a 08bd 2d7c 563d d6f8 283d
00000010: 2c57 aabd d9cf 27bd 9198 3e3d 1143 cfbd
00000020: 2299 6f3d 666e b9bb

conv2.weight f4 [20, 10, 5, 5]
0.035334073 0.04273764 -0.017107142 0.05166413 -0.025913805 0.05385343 0.045977656 0.037725773
0.040304318 -0.022860773 -0.030285023 -0.044675168 -0.046026632 -0.02078644 0.04985096 0.041086476
-0.011415723 -0.019858897 0.028162051 -0.006913572 0.061064787 0.0230681 -0.044664383 0.042384703
0.060135737 -0.039790597 -0.027027614 -0.05050166 0.0016606493 -0.017775007 -0.03244051 0.037009038
0.042252436 0.03277203 -0.017853033 -0.020313356 0.024596248 -0.040689718 0.022747373 -0.054998666
-0.01010046 0.04258959 -0.04426233 0.026708383 -0.046942618 0.023306016 0.0532139 -0.017633831
-0.02574042 0.017050251 -0.0540273 0.032957964 -0.018186731 0.046600137 -0.044218693 0.05184921
0.03360147 0.04914143 0.031253994 -0.0076478226 0.0043292837 -0.037354145 -0.017031249 -0.021727288
-0.038656104 -0.017499905 -0.021546338 -0.031186828 -0.04335309 -0.054170422 0.05200789 0.02576918
-0.007881135 0.014463329 -0.046193272 0.042619407 0.015226075 0.046207268 0.0432633 0.016578589
-0.051954098 0.057344634 0.038951587 -0.05955041 0.00081796746 0.015291004 -0.039731666 0.0072605866
-0.036161575 -0.01937857 0.05439573 -0.0027751226 -0.0385383 0.027968097 8.007077e-05 -0.043121338
0.009119537 0.032465115 0.056683633 0.036520947 0.023025528 0.06569976 -0.018722497 0.00564504
-0.017083736 -0.025450781 0.017340755 0.046798505 -0.016666096 -0.054169063 -0.0041263243 0.0052212426
-0.009800449 0.042093284 -0.05271102 0.04611069 0.039799612 -0.051685985 -0.017662175 -0.030996667
0.057392433 0.012192778 0.020481203 -0.04097157 -0.0036770042 0.063066974 0.06190678 0.06185765
-0.054981 0.0044621797 -0.03120408 -0.03535239 -0.020743039 -0.048266593 0.050552197 -0.013199294
0.043197885 -0.0026018072 -0.03567909 -0.019007394 -0.037470307 -0.03174648 0.041238815 0.059803154
0.048354298 -0.058478937 -0.028810356 0.00040913024 -0.021169994 -0.04804228 -0.02790994 0.05020276
-0.03068742 -0.043291714 -0.0013613502 0.059429523 -0.011368619 0.020984743 -0.011940895 0.06282406
0.0038077764 0.0024094733 -0.03567688 0.05385907 -0.0470484 -0.013456038 0.01453543 0.04893295
-0.036247235 0.02846955 0.020335175 0.053638715 -0.03347239 0.03108609 -0.0055350633 0.06553465
0.010691349 0.00083382643 -0.02232558 0.03676009 -0.03139238 -0.03401511 -0.03888373 0.040645514
0.014463387 -0.006767897 0.02740584 -0.029734908 0.05321741 -0.014708875 -0.052272867 -0.035649467
0.016957676 0.041776683 0.03178431 0.02401391 -0.024331892 0.03837974 -0.056990527 -0.031632792
0.005024049 0.017766872 0.041665632 -0.04717067 0.036680415 -0.037751433 0.044602685 -0.02431007
0.0013431261 -0.0496905 -0.019324824 0.05511559 -0.05670027 -0.014438266 0.016570045 0.0068502044
0.026527338 -0.010980679 -0.020547029 0.023188692 0.03787376 0.05325948 -0.01975266 -0.019813595
0.016931076 0.013075053 0.019889701 -0.027104186 0.04243893 0.056273963 -0.0030150546 -0.05647385
0.033393186 0.018150758 0.006567614 -0.007473307 0.04594208 -0.00203003 0.034268815 0.035167158
0.059482306 0.03939685 -0.0007556827 0.034907304 0.05491197 0.040934812 0.02618318 0.015072097
-0.007680981 0.0103314 0.053410646 -0.030462235 -0.06227926 -0.059656892 0.004599663 -0.00768063
00000000: 76ba 103d aa0d 2f3d 4724 8cbc c49d 533d
00000010: 3049 d4bc 6a95 5c3d 1153 3c3d 5786 1a3d
00000020: 2416 253d 8446 bbbc 4c18 f8bc 4ffd 36bd
00000030: 6c86 3cbd 5348 aabc 8530 4c3d 4b4a 283d
00000040: 0309 3bbc 20af a2bc 1ab4 e63c 3f8b e2bb
00000050: 121f 7a3d 50f9 bc3c 00f2 36bd 959b 2d3d
00000060: e450 763d 77fb 22bd 0469 ddbc d4da 4ebd
00000070: 25aa d93a e49c 91bc 57e0 04bd ca96 173d
00000080: e410 2d3d f73b 063d 8640 92bc 3268 a6bc
00000090: 127e c93c 43aa 26bd b358 ba3c 4846 61bd
000000a0: 667c 25bc 6c72 2e3d 6b4c 35bd 8acb da3c
000000b0: e746 40bd 42ec be3c d2f6 593d d374 90bc
000000c0: 93dd d2bc f8ac 8b3c bb4b 5dbd eefe 063d
000000d0: 57fc 94bc c9df 3e3d a91e 35bd d65f 543d
000000e0: b2a1 093d 8648 493d 3004 003d 969a fabb
000000f0: aadc 8d3b a900 19bd 1e85 8bbc 6dfd b1bc
00000100: dd55 1ebd f65b 8fbc f281 b0bc 857b ffbc
00000110: 0293 31bd cee1 5dbd 3a06 553d e319 d33c
00000120: e01f 01bc 99f7 6c3c 2835 3dbd b091 2e3d
00000130: ca76 793c d543 3d3d dc34 313d d2cf 873c
00000140: d2cd 54bd 35e2 6a3d b38b 1f3d 21eb 73bd
00000150: de6c 563a 1f87 7a3c acbd 22bd 37ea ed3b
00000160: 291e 14bd cfbf 9ebc 0fce 5e3d d5de 35bb
00000170: 56da 1dbd 5a1d e53c abeb a738 00a0 30bd
00000180: 1c6a 153c 24fa 043d 192d 683d fd96 153d
00000190: 08a0 bc3c 998d 863d ec5f 99bc 07fa b83b
000001a0: 31f3 8bbc 287e d0bc 330e 8e3c caaf 3f3d
000001b0: 5687 88bc 61e0 5dbd 1e36 87bb f516 ab3b
000001c0: 1092 20bc 026a 2c3d 83e7 57bd 90de 3c3d
000001d0: eb04 233d afb4 53bd 44b0 90bc b9ec fdbc
000001e0: 5414 6b3d 38c4 473c 32c8 a73c ced1 27bd
000001f0: e5f9 70bb 4229 813d f791 7d3d 725e 7d3d
00000200: c233 61bd 7a37 923b b39f ffbc abcd 10bd
00000210: 4eed a9bc 31b3 45bd d20f 4f3d da41 58bc
00000220: 44f0 303d 1583 2abb 3d24 12bd 65b5 9bbc
00000230: 777a 19bd 9908 02bd 08ea 283d 27f4 743d
00000240: 280f 463d 9c87 6fbd b203 ecbc 8880 d639
00000250: b26c adbc fbc7 44bd 63a3 e4bc 69a1 4d3d
00000260: 2f64 fbbc a752 31bd 556f b2ba 5f6c 733d
00000270: 7243 3abc 32e8 ab3c bea3 43bc e7a9 803d
00000280: e38b 793b 41e8 1d3b ec21 12bd 549b 5c3d
00000290: d3b5 40bd b776 5cbc 0326 6e3c eb6d 483d
000002a0: fb77 14bd f938 e93c f495 a63c 45b4 5b3d
000002b0: 581a 09bd 41a8 fe3c 7a5f b5bb 0837 863d
000002c0: c52a 2f3c 2595 5a3a 22e4 b6bc c091 163d
000002d0: 4c95 00bd 6e53 0bbd 8c44 1fbd e97b 263d
000002e0: d8f7 6c3c 3cc5 ddbb 3682 e03c 9f96 f3bc
000002f0: 80fa 593d 7efd 70bc 131c 56bd 2d05 12bd
00000300: d3ea 8a3c 071e 2b3d 4430 023d d2b8 c43c
00000310: ad53 c7bc 1334 1d3d e66e 69bd 6391 01bd
00000320: c7a0 a43b d58b 913c 95a9 2a3d 0836 41bd
00000330: 343e 163d 3fa1 1abd 4eb1 363d e925 c7bc
00000340: d50b b03a 4488 4bbd 184f 9ebc e3c0 613d
00000350: 8b3e 68bd 7a8e 6cbc e7bd 873c ae77 e03b
00000360: dc4f d93c 4ee8 33bc 3e52 a8bc 36f6 bd3c
00000370: 8421 1b3d 9d26 5a3d 55d0 a1bc 1f50 a2bc
00000380: 0ab3 8a3c bf38 563c baef a23c 9909 debc
00000390: 72d4 2d3d 877f 663d 3998 45bb 2051 67bd
000003a0: 4bc7 083d e6b0 943c 2435 d73b a5e2 f4bb
000003b0: c32d 3c3d 400a 05bb 755d 0c3d 700b 103d
000003c0: b8a3 733d 975e 213d 0219 46ba f6fa 0e3d
000003d0: 60eb 603d 43ab 273d 1c7e d63c f5f0 763c
000003e0: bdb0 fbbb 0845 293c 1fc5 5a3d f08b f9bc
000003f0: 8a18 7fbd c95a 74bd c5b8 963b cbad fbbb

conv2.bias f4 [20]
-0.031165272 0.074406944 -0.10920384 -0.05161049 0.05834045 0.011525936 0.015252122 -0.06296232
0.06228914 -0.050323006 -0.01224066 -0.007140805 -0.05925415 -0.12376838 -0.05175221 -0.04545272
0.005624332 -0.03545384 0.030095907 -0.035225946
00000000: 504e ffbc ab62 983d 43a6 dfbd 8565 53bd
00000010: 65f6 6e3d 48d7 3c3c 09e4 793c 64f2 80bd
00000020: e622 7f3d 7f1f 4ebd 0d8d 48bc 6afd e9bb
00000030: 7bb4 72bd 477a fdbd 20fa 53bd a22c 3abd
00000040: 514c b83b 0c38 11bd b18b f63c 1549 10bd

fc1.weight f4 [50, 3380]
-0.008957595 -0.008811678 0.0063639916 0.0015113465 0.016581628 -0.013413098 0.013190534 -0.0069532935
0.011278242 -0.012015875 0.0034155268 0.0038353577 0.0001921393 0.015172835 -0.005340006 -0.005856066
0.001268981 0.015250791 -0.01213605 0.0057960507 0.014650326 -0.012340592 0.0039419625 -0.007868324
-0.0010884274 0.011846432 0.0011797063 0.015521038 -0.013220308 -0.012226319 -0.012622651 -0.006973751
-0.0087183 0.0058420952 -0.013670432 -0.00069860555 0.009779764 -0.0030745203 0.010397976 0.015851669
-0.009439523 0.010597479 -0.008176389 0.013469368 -0.0072351843 -0.016995668 -0.011202076 0.0013481658
0.0005213842 -0.014603462 0.01463072 0.016581561 -0.012445373 -0.01360745 -0.0009267479 -0.0072905384
-0.0049429424 -0.003844752 0.008248767 -0.0031081578 -0.013526459 0.007993167 0.014266171 0.00928944
-0.008508818 -0.010241974 0.0044524856 0.00068227574 -0.0073877284 0.007698154 -0.01506441 -0.003551322
-0.00013381802 -0.008314586 -0.00929655 0.007873733 -0.007402299 -0.01566883 -0.0045136884 0.011410896
-0.011052079 -0.014159634 -0.015626151 0.011245193 -0.003668582 0.01668964 0.014901768 0.003580466
0.0013967175 0.010844808 0.011207424 -0.005584702 -0.015124111 0.008990323 -0.0027802316 -0.0049796
-0.012370583 0.008200614 0.00034151413 0.013579043 -0.016887398 -0.008814188 -0.012224766 -0.01064573
-0.013047276 -0.004830368 -0.00087548606 0.0021768212 -0.0024854532 -0.007850746 0.01654657 0.016113877
0.012397641 0.009675434 -0.0011219103 -0.0067043053 0.0040519275 -0.005898255 -0.016730074 0.014784746
-0.016629372 0.008338343 0.016001593 -0.011741038 0.0023761448 -0.0020667594 -0.01718839 0.0059674513
-0.009493807 0.008897647 0.0072962567 -0.0137915285 0.004660696 0.0035696346 -0.01671136 0.013045374
0.017099056 0.004684586 0.010797352 0.013042618 0.0063839145 0.015180372 -0.0060001723 -0.000677919
0.010921273 0.006931076 -0.0033035548 -0.012282891 0.0012154281 -0.015311429 0.016275905 -0.0028475951
0.00117773 0.008618364 0.002439754 -0.0022446858 -0.015409565 -0.0026759515 0.0039020646 -0.007946504
0.006941093 -0.013630256 0.006833257 0.013910539 0.008368781 -0.011109284 0.000921417 -0.003765665
-0.005837245 -0.009523939 0.005376082 0.0030467622 0.009142134 -0.006319044 0.014435232 -0.011427622
-0.009802117 0.008610429 0.009535378 -0.0052987244 0.009962052 -0.0017169584 0.005870795 -0.009309781
-0.00027012452 0.012548648 0.0023022238 0.011025963 0.01423065 -0.010839312 0.00245901 0.009361353
0.012246169 -0.01031637 -0.006864325 -0.008644676 -0.014937855 -0.002592842 -0.0063714134 0.0038491208
-0.0015231371 -0.0021774713 -0.0046675634 0.0016088001 0.004452549 -0.0009510182 0.015433874 0.0092774
0.010697551 0.015553031 7.486157e-05 -0.0047817044 0.009145699 0.0013068952 0.005364308 -0.0013945438
-0.013455915 0.013175899 -0.00541333 -0.01093227 -0.008606968 0.006749738 -0.013956488 -0.0073603345
0.0020803679 -0.016513772 -0.017072277 -0.0055067968 4.7121197e-05 0.0131461155 0.0033443458 0.012547115
0.009478422 0.0061851162 0.00056440383 -0.010944712 0.009733381 0.0016997345 0.0009931568 0.007042099
0.009458216 -0.01086995 0.005975455 -0.013718645 0.0010284726 0.015337665 -0.015806606 -0.00717772
0.012301266 -0.014558143 -0.014779953 -0.016986512 0.01235923 0.0007691514 0.007781189 0.009904297
00000000: e0c2 12bc db5e 10bc 0889 d03b 6018 c63a
00000010: 32d6 873c 9cc2 5bbc 1c1d 583c 74d8 e3bb
00000020: 60c8 383c 3cde 44bc 08d7 5f3b a05a 7b3b
00000030: 0079 4939 7c97 783c 38fb aebb 3ee4 bfbb
00000040: f053 a63a 74de 793c 48d6 46bc ccec bd3b
00000050: ec07 703c 3230 4abc 942b 813b 25ea 00bc
00000060: 90a9 8eba 8a17 423c 60a0 9a3a f44b 7e3c
00000070: fe99 58bc e650 48bc 3ccf 4ebc 1084 e4bb
00000080: 33d7 0ebc 0c6f bf3b f3f9 5fbc a022 37ba
00000090: 4e3b 203c e47d 49bb 465c 2a3c 5cdb 813c
000000a0: 3ba8 1abc 0ca1 2d3c 43f6 05bc a0ae 5c3c
000000b0: 2015 edbb 803a 8bbc ea88 37bc f0b4 b03a
000000c0: 80ad 083a 5c43 6fbc b0b5 6f3c 0ed6 873c
000000d0: aee7 4bbc c8f1 5ebc 00f1 72ba 78e5 eebb
000000e0: 68f8 a1bb 3cf8 7bbb d625 073c 3cb2 4bbb
000000f0: 159e 5dbc c6f5 023c a8bc 693c bc32 183c
00000100: 9268 0bbc f4cd 27bc 28e6 913b c0da 323a
00000110: c214 f2bb cc40 fc3b b7d0 76bc 4cbd 68bb
00000120: 8051 0cb9 e739 08bc 8f50 18bc d400 013c
00000130: fc8e f2bb eb5b 80bc 90e7 93bb c4f4 3a3c
00000140: c713 35bc cffd 67bc 6a02 80bc c23d 383c
00000150: 986c 70bb b6b8 883c 8c26 743c 40a6 6a3b
00000160: 1012 b73a 6cae 313c 589f 373c e0ff b6bb
00000170: 1fcb 77bc 264c 133c 8c34 36bb ea2b a3bb
00000180: fcad 4abc de5b 063c 400d b339 a27a 5e3c
00000190: 7157 8abc 6269 10bc 634a 48bc 6e6b 2ebc
000001a0: 3ec4 55bc 1048 9ebb e080 65ba 00a9 0e3b
000001b0: fce2 22bb 6aa0 00bc ac8c 873c 4001 843c
000001c0: 7a1f 4b3c b685 1e3c 100d 93ba caaf dbbb
000001d0: 08c6 843b 2646 c1bb 820d 89bc b83b 723c
000001e0: 523a 88bc 8c9d 083c c615 833c 7c5d 40bc
000001f0: 18b9 1b3b 7872 07bb abce 8cbc 9c8a c33b
00000200: ea8b 1bbc 70c7 113c 7015 ef3b ddf5 61bc
00000210: c0b8 983b 88f0 693b 43e6 88bc 44bc 553c
00000220: 5213 8c3c 2881 993b 60e7 303c b4b0 553c
00000230: 2830 d13b 18b7 783c 189d c4bb 60b6 31ba
00000240: 24ef 323c 141e e33b 7480 58bb 2e3e 49bc
00000250: 004f 9f3a cadc 7abc 0c55 853c b89e 3abb
00000260: 105e 9a3a 0a34 0d3c 48e4 1f3b 941b 13bb
00000270: 6678 7cbc 045f 2fbb c8b9 7f3b 0e32 02bc
00000280: 1c72 e33b 7051 5fbc 84e9 df3b 08e9 633c
00000290: 361d 093c b703 36bc 408b 713a 60c9 76bb
000002a0: 5c46 bfbb 4c0a 1cbc d829 b03b 30ac 473b
000002b0: e4c8 153c fc0f cfbb c081 6c3c ec3a 3bbc
000002c0: 0f99 20bc c212 0d3c 463a 1c3c eca0 adbb
000002d0: e037 233c 900b e1ba cc5f c03b 0d88 18bc
000002e0: 809f 8db9 d898 4d3c e8e0 163b 3ea6 343c
000002f0: ac27 693c 5f97 31bc 5827 213b 5c60 193c
00000300: 28a4 483c fe05 29bc 22ee e0bb 66a2 0dbc
00000310: e8bd 74bc acec 29bb 4ac7 d0bb 8841 7c3b
00000320: 00a4 c7ba e8b3 0ebb 5cf2 98bb 60de d23a
00000330: b0e6 913b c04d 79ba 5cde 7c3c 3c00 183c
00000340: c844 2f3c 24d2 7e3c 00ff 9c38 d8af 9cbb
00000350: d8d7 153c 204c ab3a 14c7 af3b 20c9 b6ba
00000360: 3376 5cbc badf 573c 4e62 b1bb 441d 33bc
00000370: 3e04 0dbc e82c dd3b c1a9 64bc f62e f1bb
00000380: c856 083b e447 87bc 29db 8bbc 5c72 b4bb
00000390: 00a4 4538 ce62 573c d02c 5b3b 6a92 4d3c
000003a0: 624b 1b3c 84ac ca3b 80f4 133a 7351 33bc
000003b0: c278 1f3c a0c9 de3a d02c 823a 68c1 e63b
000003c0: a2f6 1a3c e017 32bc c0cd c33b 2bc4 60bc
000003d0: d0cd 863a d44a 7b3c db7c 81bc 1433 ebbb
000003e0: 408b 493c 4785 6ebc 9e27 72bc 4c27 8bbc
000003f0: 5e7e 4a3c e0a0 493a 58f9 fe3b a245 223c

fc1.bias f4 [50]
-0.0056333365 9.36836e-05 0.019355182 -0.016696183 -0.0025192024 0.010861815 0.024328697 -0.007378194
0.007779394 0.023541477 0.008308401 -0.0072983806 -0.0043880194 -0.014354868 -0.017115911 0.013338186
0.0024903808 -0.00024917567 -0.015905682 0.0002392649 -0.0007572999 -0.027181666 -0.0011621371 -0.013272576
-0.0038846235 0.016304309 -0.005696282 0.0059298538 -0.017059129 0.011672319 -0.016359705 0.013553945
-0.0097116325 0.006535387 0.004420678 0.013140472 0.008355097 0.009295504 0.010124903 -0.018745914
-0.04878647 0.017146131 -0.007465858 0.012738077 -0.008972963 -0.011675343 0.01405485 -0.002035668
0.0021212911 -0.022638736
00000000: da97 b8bb 0078 c438 c28e 9e3c 6fc6 88bc
00000010: 3419 25bb c1f5 313c fa4c c73c c7c4 f1bb
00000020: 49ea fe3b 0eda c03c f61f 083c 4127 efbb
00000030: 60c9 8fbb ae30 6bbc ab36 8cbc 6888 5a3c
00000040: a835 233b cba3 82b9 a24c 82bc 2fe3 7a39
00000050: 8985 46ba 16ac debc da52 98ba 3875 59bc
00000060: 2b95 7ebb 9d90 853c e0a7 babb 384f c23b
00000070: 96bf 8bbc 413d 3f3c ca04 86bc 5e11 5e3c
00000080: 8a1d 1fbc cd26 d63b 56db 903b 224b 573c
00000090: d1e3 083c 2b4c 183c ece2 253c 0891 99bc
000000a0: 52d4 47bd 0b76 8c3c 28a4 f4bb 5eb3 503c
000000b0: 5603 13bc f049 3fbc 5046 663c d768 05bb
000000c0: 5c05 0b3b df74 b9bc

fc2.weight f4 [2, 50]
-0.111773685 0.05792761 -0.12657812 0.09165281 0.034923956 -0.040035587 -0.07162232 -0.11152804
0.018820873 -0.08834334 -0.029661095 -0.12262469 0.07918411 -0.06942178 0.043819655 -0.0040454366
0.12772745 -0.07107985 -0.039779723 -0.034163456 -0.08616557 0.07075809 0.021175886 0.060948934
0.035479248 0.09881763 0.15888016 -0.034475178 -0.02614262 -0.010303647 -0.06441128 0.06353187
-0.12263405 0.010833352 0.0951803 0.076967865 -0.12255649 0.04551072 0.045461368 0.14371544
0.17494948 0.0067640143 -0.015674485 -0.12231595 0.04751954 0.06596073 -0.122849435 -0.041077416
0.10819307 0.15249887 -0.094135866 0.0927908 0.0021393974 0.07200028 0.13738619 0.13751969
0.038231727 -0.11585222 0.09569759 0.06217198 0.07531197 0.02549872 0.0032513204 -0.11188306
0.033780288 0.018388629 0.12713248 -0.14275874 0.08177939 0.044138897 -0.072328314 -0.05060663
-0.13706213 0.1036448 -0.06954263 0.14396656 -0.020262195 -0.006822052 -0.06070611 0.113984995
-0.12460555 0.07583792 -0.102876395 0.059298918 -0.049639005 0.007761538 -0.11832202 -0.027466303
0.06378786 0.055005226 -0.21079482 -0.0013566208 0.043822616 -0.073674746 -0.08584747 -0.10638806
0.13543361 0.00674974 0.04755795 -0.15762576
00000000: 9ae9 e4bd 8045 6d3d b29d 01be 78b4 bb3d
00000010: 6c0c 0f3d 5bfc 23bd b9ae 92bd d068 e4bd
00000020: 3b2e 9a3c 5aed b4bd d3fb f2bc a722 fbbd
00000030: 472b a23d 022d 8ebd 3d7c 333d 958f 84bb
00000040: fcca 023e 5092 91bd 10f0 22bd fbee 0bbd
00000050: 9377 b0bd 9ee9 903d 0d79 ad3c 97a5 793d
00000060: b052 113d e660 ca3d 7bb1 223e d835 0dbd
00000070: 0c29 d6bc a1d0 28bc 10ea 83bd ff1c 823d
00000080: 9027 fbbd 5f7e 313c e4ed c23d 54a1 9d3d
00000090: e6fe fabd 7369 3a3d b335 3a3d 242a 133e
000000a0: f525 333e aaa4 dd3b c767 80bc c980 fabd
000000b0: d9a3 423d 6b16 873d 7c98 fbbd cb40 28bd
000000c0: 5494 dd3d aa28 1c3e 4eca c0bd 1a09 be3d
000000d0: 2235 0c3b e274 933d f7ae 0c3e f6d1 0c3e
000000e0: df98 1c3d ee43 edbd 19fd c33d 0ca8 7e3d
000000f0: 2a3d 9a3d b1e2 d03c 1b14 553b f222 e5bd
00000100: 335d 0a3d c0a3 963c 042f 023e 592f 12be
00000110: f47b a73d fdca 343d de20 94bd e648 4fbd
00000120: 045a 0cbe ba43 d43d 5e6c 8ebd f86b 133e
00000130: e7fc a5bc 858b dfbb f8a6 78bd f770 e93d
00000140: 3231 ffbd e950 9b3d dcb0 d2bd 6ce3 723d
00000150: 4552 4bbd 8054 fe3b d152 f2bd 0301 e1bc
00000160: 36a3 823d 294d 613d 99da 57be a4d0 b1ba
00000170: 587f 333d c9e2 96bd ccd0 afbd fce1 d9bd
00000180: 1caf 0a3e ec2c dd3b 20cc 423d a668 21be

fc2.bias f4 [2]
-0.20025758 0.2349027
00000000: 5310 4dbe 558a 703e
