pytorch_maze_classifier/model.pth (torch, 702632 bytes, 8 tensors)

conv1.weight f4 [10, 3, 5, 5]
00000000: 74d2 9e3d b80f 353d 5561 a83d 2441 23bd
00000010: c6a4 bcbd a42d 893d 9e6d b2bc 3500 e3bd
00000020: 8134 d4bd e943 74bd 05c7 123c f9f0 433d
00000030: 8645 873d 4f9d d43d 813c 18bd 4a3b 903d
00000040: 80b8 043d 84c8 953d 8de5 c93d 540a c33d
00000050: 5127 b9bc 75ec 9cbc 012b bd3c 9de9 ee3d
00000060: 1afc d13d 3ec5 40bd a877 533d d153 d03d
00000070: 08e9 c43d 406a f0bc 68f7 94bd fb18 5abb
00000080: fec7 733d 4a6e cbbb a388 983d 81d4 963d
00000090: b9f3 b6bd 98da ab3d 4142 123d b955 e83d
000000a0: 3b32 b73d 79aa e73d 8d9f d63d 6f17 92bd
000000b0: 6d75 3abd e1a1 cabc 47a0 24bc 2d33 13bd
000000c0: ab39 e4bc a176 46bd fbe8 05bd 0d1d c0bc
000000d0: 1959 0dbd 0827 533d 52d9 643c 6148 013d
000000e0: 2547 2dbd 32f6 ec3d b274 333d e440 c83d
000000f0: bb7a d0bd ec93 dc3d ca88 bb3d ec86 da3c
00000100: 1438 a43d edb3 b93c 5435 9c3d be40 fc3c
00000110: ce59 f73d 7160 d13d 8cff e73d 4c12 b1bd
00000120: b9e9 42bd 4a7a 103c 15cc 09bd c737 e83d
00000130: d881 8d3d fd03 ffbb 2fb4 68bd beee 063c
00000140: 227d c13d 29c8 dc3d ea47 88bd dbdc 523d
00000150: 7fcc 673d e0d9 b43b 1527 123d 8be8 d2bd
00000160: b202 38bd aabf 3dbd 62e8 8abd 7510 9e3d
00000170: df65 bfbd 3f67 52bd ebf7 a7bd 8a44 f93d
00000180: 06fa ce3c 8edc 0a3d 3d3e 5fbd d6a1 cbbd
00000190: 27f4 79bc 38d5 cc3d bf84 9ebc f9ba eabd
000001a0: e56b 7d3d f86b cebc 7cb9 593d 4688 0a3d
000001b0: 1354 6bbb 4c93 77bc 124d 26bd 5998 9abc
000001c0: 4ad5 2abd 3514 6d3d 25e0 9e3d b9a4 a03c
000001d0: 627d ef3d dd8c 9d3d a3e0 04bd cacd 3dbd
000001e0: 4e09 b03d b785 f73d 3ed0 ee3c 5717 cabd
000001f0: 88ee 9dbd cdb7 12bd a66f 08bd 7a48 15bd
00000200: aecc f4bc 9e68 a5bd 6363 c83d acb3 a43d
00000210: 7555 373d ffe2 57bd b6a9 04bd 6791 5dba
00000220: 395d dbbc 11b2 6c3c 517c 07be 2bc2 e13d
00000230: a40b 813c 7774 22bb e5ce 80bd 7db3 b4bc
00000240: 0a81 ed3c 1bca 21bc 3f0c b53d a6e4 8f3c
00000250: 9a9e 85bd fdfb 473b cec1 ecbd 4274 a33d
00000260: 9f8a c3bd 996c a7bd 03f8 0ebd 982f eebd
00000270: ef09 423d 0cfe 85bc 9e8a 42bd b188 28bd
00000280: 94be a33d b324 af3d 02f4 f73d a741 aa3c
00000290: 5bff e83d 36e7 9bbd 38a7 f63d 57b7 8fbc
000002a0: 0e5c 2bbd cb06 1f3e ff66 a7bd 8689 e33d
000002b0: 8961 b8bd 508a 1bbd 2909 9bbd 52d7 fbbd
000002c0: d3b0 d73d c2c2 77bd 85f1 083d 06cf c2bd
000002d0: 5b74 c3bc ca32 cdbd a595 11bd b318 9f3d
000002e0: 8bb3 b3bd 21c4 9a3d 1914 093e 6a8b 30bd
000002f0: 2912 ff3c 7435 a3bc 8474 ca3d cc29 0e3e
00000300: dc46 163e cce9 2d3c 04f2 0b3e eeb1 11be
00000310: 1095 9e3d 5707 4f3c 492f 19be 2c29 023d
00000320: 15be 04bd e73e 633d 11a3 06bd 75e7 d4bd
00000330: 4519 c6ba a842 f4bd 21fc 313d 5adf b53d
00000340: 3e6f a23d a113 f0bd 4945 033e dbad 1fbc
00000350: 392b 34bd 3eac 613c ebd1 a43d e38d d83d
00000360: a063 223d 6a07 b33d 73ae 58bd 8268 bb3d
00000370: f776 0cbe 21c4 bd3c e3da b23d eb30 1bbe
00000380: 48e3 c0bd 5598 203d 85c8 bfbd 0b94 c03d
00000390: 9c9f d63d d8a1 e5bc e022 ea3d 3c9d d2bd
000003a0: a7ae 32bd f0f7 28bd 9fc0 5bbc 8f6a 2bbd
000003b0: 0d84 4a3d d73c a63d 38dd d63d e01d 833d
000003c0: cd04 e2bd 69f7 56bd f374 7e3d 5f58 a33d
000003d0: a68c 293d ac66 683d 7644 7c3d deb2 54bd
000003e0: 938e 08bd 54b3 2c3d d91e 28bd b5c9 f73d
000003f0: d8b3 aa3d 8946 9fbd 0102 b63d 7847 c13d
0.077549845 0.044204444 0.082216896 -0.039857045 -0.092111155 0.066981584 -0.021780785 -0.11084024
-0.10361577 -0.059635077 0.008958583 0.04783723 0.066050574 0.10381567 -0.037167076 0.070425585
0.032402515 0.07313636 0.098582365 0.09523454 -0.022601755 -0.01915572 0.023091795 0.11665652
0.10253163 -0.047063105 0.051627785 0.10172237 0.0961476 -0.029347539 -0.072737515 -0.003327905
0.0595169 -0.006208216 0.074479364 0.07364751 -0.08933205 0.08391303 0.035707716 0.11344475
0.089451276 0.11311812 0.10479651 -0.07133376 -0.045522142 -0.024735393 -0.010047979 -0.035937477
-0.02785953 -0.048452977 -0.03269289 -0.023451352 -0.0345088 0.051550895 0.013967829 0.031563167
-0.042304177 0.115703955 0.04381246 0.09778002 -0.10179659 0.10770401 0.0915695 0.026675664
0.080185086 0.022668803 0.07627359 0.03079259 0.12077676 0.10223473 0.113280386 -0.08646068
-0.047586177 0.0088182185 -0.033641893 0.11338764 0.06909531 -0.007782458 -0.05681246 0.0082356315
0.09447695 0.10780365 -0.066543415 0.051480155 0.056591507 0.005519137 0.035681803 -0.1029826
-0.044924445 -0.046325363 -0.06782605 0.07717983 -0.09345602 -0.051367994 -0.082015835 0.12171276
0.025265705 0.033901744 -0.054502714 -0.09942977 -0.015255964 0.10001606 -0.019350408 -0.114614435
0.061870474 -0.025197968 0.053155407 0.033821367 -0.0035908266 -0.015110802 -0.040600844 -0.018871473
-0.041707315 0.0578806 0.07757596 0.019609796 0.11693837 0.07692883 -0.032440793 -0.046338834
0.08595525 0.12086051 0.029152032 -0.09867733 -0.07711512 -0.035819817 -0.0333096 -0.036446072
-0.029882755 -0.08076595 0.097845815 0.08042082 0.044759233 -0.052706715 -0.03238841 -0.00084521476
-0.02677785 0.014446751 -0.13231017 0.11023363 0.015752621 -0.0024788657 -0.06289462 -0.022058243
0.028992195 -0.009874846 0.088402264 0.017565083 -0.065243915 0.0030515187 -0.11560403 0.07981159
-0.09547924 -0.0817501 -0.03490449 -0.116301715 0.047372755 -0.01635649 -0.047495477 -0.041145984
0.07995334 0.08551922 0.12107088 0.020783259 0.1137683 -0.07612459 0.12043613 -0.017543478
-0.041835837 0.15529935 -0.08173942 0.11110215 -0.09002978 -0.037973702 -0.075701065 -0.122969285
0.105317734 -0.06048847 0.033433456 -0.09512143 -0.023859194 -0.10019453 -0.035543103 0.07768383
-0.087744795 0.0755694 0.13386573 -0.043101706 0.03113659 -0.01992295 0.09885505 0.13883132
0.14675468 0.010614824 0.1366654 -0.14228031 0.07743275 0.012636027 -0.14959444 0.031777546
-0.03240784 0.05547991 -0.032870356 -0.103957094 -0.0015113732 -0.11926776 0.04345334 0.088804916
0.07931374 -0.11722494 0.12819399 -0.00974604 -0.043986533 0.013773976 0.08047851 0.10573938
0.03964579 0.087416485 -0.052900743 0.09150793 -0.13717256 0.02316481 0.087331556 -0.1515538
-0.094183505 0.039207775 -0.09364418 0.09403237 0.10479662 -0.028031275 0.11432433 -0.10283896
-0.043623593 -0.041252077 -0.013412624 -0.04184967 0.04944234 0.08117073 0.10491413 0.064021826
-0.11036072 -0.052482042 0.06212325 0.0797584 0.0413939 0.05673854 0.061588727 -0.051928394
-0.033339094 0.042163208 -0.041045044 0.120990194 0.08335084 -0.077771254 0.08887101 0.0943746

conv1.bias f4 [10]
00000000: c141 343e 4edf 0bbd 134d bfbd 1599 173e
00000010: 9606 02be 20fa 04be 409a 73bd 8e98 f03d
00000020: 29dc a03c 29aa 21be
0.17603208 -0.034148507 -0.093408726 0.1480449 -0.12697825 -0.1298604 -0.059473276 0.117478475
0.01963623 -0.15787567

conv2.weight f4 [20, 10, 5, 5]
00000000: 3dd7 5cbd d1be 4e3d a05d f3bc 4f2f 67bd
00000010: d017 2bbd 4238 a2bb e883 643d 47f3 a2bc
00000020: 0e2a 77bb 0eab 76bd fed1 87bc e99f 36bd
00000030: a0c7 80bc 3413 eeba a38b b8bb ffa3 60bc
00000040: 6ad6 4b3c aae4 7b3b 904d 8dbc ef81 673d
00000050: 4dfb aa3c 4261 49bd 9e38 733d 91b0 45bb
00000060: 81c4 6dbd 3df2 01bd 3ece 973c 8281 6c3d
00000070: 4bcb 72bd 11bc 90bc d380 1ebd 7848 23bd
00000080: be14 553c 220b 65bd 54d8 eabc c283 683d
00000090: bf28 233d d0d4 0a3c 180d a13b 39e4 c7bc
000000a0: 1636 123c cf55 83bc cde0 2b3d 5b74 50bd
000000b0: 08d6 013b cc3f 583c 42d9 6bbd e9b2 5bbb
000000c0: cf36 a6bc 3643 d33c 9851 083d fbed 163a
000000d0: 1515 2ebd c438 043d 994f 303d 430a 05bd
000000e0: f91e 17bd d6aa 383c 6128 22bd 0d1f 6dbd
000000f0: e53c 56bc cdef 793d 2a7f 87bc a9fd 4738
00000100: b74f d5bc bf01 bf3b c973 22bd 7f73 56bc
00000110: d235 0a3b e38a 9c3b 5a83 123d 7e19 913c
00000120: 7c41 76bc 3b50 753d 84a8 78bd ff3e 473d
00000130: 2e44 593b 6959 fbbc 57a3 73bd 380f 363d
00000140: 376e 7bbd de5e 133d f2b3 21bd 9557 49bd
00000150: 6b65 c1ba 4b14 873c ebff af3c a56c 7cbd
00000160: ec18 6a3d d501 2c3d 8e1e 5c3d ae2e b8b9
00000170: 8f62 68bd 15c1 393d 3250 fa3c 901f b7bc
00000180: 2855 70bd f2e2 073d ee53 fc3c 44a6 13bd
00000190: 1016 fd3c 7c86 e93c affc 9fbc bd3d 01bc
000001a0: bb64 223c d911 113d de2d 64bd aee6 80bd
000001b0: 173b c13c 5a16 4b3d 8f73 693d 47aa c7bc
000001c0: d0a9 b73c c312 5c3d 6b3e 61bd 37ce 233d
000001d0: c70c 31bc 94fd 1cbc e076 20bd 4e55 8cbc
000001e0: a310 82ba 5ad7 00bd 19b0 3f3d f2f4 65bc
000001f0: bd65 c93b 7587 213d de35 68bd 0e00 16bd
00000200: bd65 5f3d d5fc 2c3b 5aa7 9b3c 7427 8bba
00000210: c674 3e3d 0ac5 7fbd 25ee 7e3d 2b07 bebb
00000220: ddb0 abbc 26b5 1bbd 1478 a0bc 649f ff3c
00000230: 0d20 4f3d 35f0 113c dcbb 913c 199e 01bc
00000240: 746d 993b 0f7b 243d 9e92 053d e23e 13bd
00000250: d826 1a3d 0017 173b 84be 69bc f9da 553d
00000260: 0604 f5bc df21 dabc 68c7 0f3d 810e 603c
00000270: 334d ec3c eb2c aebc 2533 c03a 2099 8b3c
00000280: 11c0 9c3c 9c48 c13c 3acd 523d e3d4 00bd
00000290: 64e8 913c cad3 79bd e695 573d d5a8 643c
000002a0: 07a4 89bc 2cbb 733d c0b1 3b3d 9e3a 283b
000002b0: 26df 863b d354 efbc 14af f5bc 090c 4abd
000002c0: 8977 ba3c 6a66 60bd ce5e 4b3d 2dd8 76bd
000002d0: 2937 953c 710c 893c 739e 133d 0dd2 45bd
000002e0: 4836 5dbd a804 893c d0d2 8ebb 72f3 75bc
000002f0: 7178 d33c 1cb4 1dbd 6e6c 72bd ba06 613d
00000300: 9d18 413c 238b 0c3c 9aaf f5bc 3322 07bd
00000310: d8db 993b 65eb 35bd 3e6f 71bd 6109 c2ba
00000320: 4798 81bc ef9f c7bb 914e 87bb fef8 113d
00000330: 9e3e 19bd 5d3b 10bb 1313 94bc 0a08 eabb
00000340: 74d8 c7bc 9a46 70bd 57a6 153c d8fc 2fbd
00000350: f5da 0c3d 82d2 08bb b4ee 483d f2a0 2bbc
00000360: 35d2 2cbd 1696 9d3b f1f4 edbc a004 313c
00000370: a5bb 473c a9a4 383d a255 61bc f092 3bbd
00000380: eca8 24bd d9b8 143c 2081 b03c aeb7 e2bc
00000390: 00a1 973c 807c 6b3d 5f6b 673d 77f4 803d
000003a0: d652 713d 68a2 71bd f380 edbc 6294 7bbd
000003b0: 7b07 f13c 6495 a23c 17cf 12bd 494f 70bd
000003c0: e607 55bd 282f 67bc a498 64bd c775 bcbc
000003d0: 5125 03bd b456 eb3a ea7b 063d f79e 203d
000003e0: 75ee d9bc 40af 223c e64d f8bb 046d 773d
000003f0: d100 50bc 795d dfbb 5a59 38bd 09df fbb9
-0.053916205 0.050474945 -0.02970773 -0.0564416 -0.041770756 -0.004950554 0.055789858 -0.019891394
-0.0037714276 -0.060221724 -0.016579624 -0.044586096 -0.015720189 -0.0018163682 -0.0056318804 -0.013710975
0.012441257 0.0038435855 -0.017248899 0.0565204 0.020871783 -0.049165018 0.059380166 -0.0030165056
-0.05804873 -0.031725157 0.018530961 0.057740696 -0.059275907 -0.017667802 -0.038697075 -0.039864033
0.013005434 -0.05591882 -0.028667606 0.05676628 0.03983378 0.00847359 0.004914891 -0.024400817
0.008924028 -0.016032128 0.041962434 -0.050892215 0.001981141 0.013198804 -0.05758024 -0.0033523387
-0.020289807 0.025788885 0.03328094 0.0005757508 -0.042500574 0.0322807 0.04304466 -0.03248049
-0.036894772 0.011271199 -0.03958929 -0.05789094 -0.013076042 0.061019707 -0.016540129 4.7681537e-05
-0.026038988 0.0058290656 -0.039661203 -0.01308906 0.0021089208 0.004777299 0.035769798 0.017712351
-0.015030261 0.059890967 -0.060707584 0.048644062 0.003315221 -0.030682283 -0.059481945 0.044448107
-0.061384406 0.035979144 -0.03947825 -0.04915579 -0.0014754956 0.016489169 0.021484336 -0.06162705
0.057152674 0.041993935 0.053740077 -0.00035129994 -0.056734618 0.045350153 0.030555818 -0.022353917
-0.05867496 0.033175416 0.03080174 -0.036047235 0.03089431 0.02850651 -0.019529669 -0.007888255
0.009911711 0.03541741 -0.055707805 -0.06293999 0.023587747 0.049581863 0.05699497 -0.024373187
0.02241984 0.05372883 -0.054991167 0.039991584 -0.010806269 -0.009581942 -0.039175868 -0.01713052
-0.0009923171 -0.031455375 0.0467988 -0.01403545 0.0061461614 0.039435823 -0.056691997 -0.036621146
0.054540385 0.0026395817 0.019000698 -0.0010616616 0.046498083 -0.06244377 0.06223883 -0.0057991943
-0.020958358 -0.038014553 -0.019588508 0.031203933 0.050567675 0.0089073675 0.017789774 -0.007911229
0.0046822373 0.04015642 0.03261053 -0.03594864 0.0376347 0.002305448 -0.014266614 0.05221078
-0.029909145 -0.02662748 0.035102278 0.013675333 0.028845405 -0.021261653 0.001466368 0.01704079
0.019134553 0.023594193 0.05146525 -0.031453025 0.017811008 -0.060992993 0.05263319 0.013956268
-0.016801847 0.059504673 0.045823812 0.0025669704 0.004115957 -0.029215252 -0.02999071 -0.049327884
0.022762077 -0.05478517 0.04965096 -0.060264755 0.018214779 0.016729565 0.03603978 -0.048296023
-0.054006845 0.016725853 -0.004358627 -0.015011655 0.025814267 -0.038501844 -0.059185438 0.054938056
0.011785653 0.008578095 -0.02999096 -0.0329916 0.004695397 -0.044413943 -0.05894398 -0.001480382
-0.015819682 -0.0060920636 -0.004129239 0.035637848 -0.037413232 -0.002200804 -0.018075502 -0.0071420716
-0.024395205 -0.05866108 0.009133897 -0.04296574 0.0343885 -0.0020877426 0.04905577 -0.010475384
-0.042192657 0.0048091514 -0.029047461 0.010804325 0.012190734 0.045078907 -0.013753327 -0.045794427
-0.04020016 0.009077274 0.021545947 -0.027675476 0.018509388 0.05749178 0.05649888 0.06296628
0.05891689 -0.058992773 -0.028992152 -0.061420806 0.029422512 0.019846626 -0.035842028 -0.058669362
-0.052009486 -0.014110364 -0.055809632 -0.02300538 -0.03201801 0.0017954917 0.032833017 0.0392141
-0.026602963 0.009929478 -0.0075776456 0.0604067 -0.012695507 -0.0068165627 -0.045007087 -0.00048040625

conv2.bias f4 [20]
00000000: c3ff 17bd cad9 0a3d 7f8a debc 19b9 f7bd
00000010: e6b6 ca3d 2e2c ae3c 94d1 9dbd 1417 80bd
00000020: 737e c53c 0715 6d3c 369b 51bc df65 8abc
00000030: 833f 2a3d db28 e23d d096 f23c 6d10 83bd
00000040: 4f48 91bb 7ebd a13a 0af3 e4bc 37a8 4cbc
-0.037109148 0.033899106 -0.02716565 -0.120958515 0.09898166 0.0212613 -0.077059895 -0.06254402
0.024108147 0.014470345 -0.012793353 -0.016894279 0.041564476 0.11042949 0.029612929 -0.06399617
-0.0044336687 0.0012339798 -0.027947921 -0.012491277

fc1.weight f4 [50, 3380]
00000000: 3c91 643c e05c 0c3b a2f3 203c 0056 223a
00000010: e86d 3dbc 5a8e 36bc 822d 90ba 004c f3b8
00000020: 4466 f43b b8df 96bb 6e2a 8bbb 3022 fd3b
00000030: 46df 563c 48be fdba e817 33bc e5c3 093c
00000040: 7301 2bbc 652f 2d3b e256 d0bb d472 823b
00000050: 3b63 0fbc dff7 04bc a08b 393a 514c c8bb
00000060: a30c 843c 56d0 5c3c 9c95 23bc 998a 88bc
00000070: 5761 943b 5c5d 33bb 7c59 57bc 04ae 40bb
00000080: 2dca 16bc f57a 73bc c2d0 673c 31e0 18bc
00000090: bc13 aebb 512f c33b ef03 233c 148a 77bc
000000a0: 7ca5 1bbc 0535 1f3c cf4e 84bc d462 f6bb
000000b0: e8e8 1bbc be9f 423c fb19 61bc 799f 68bc
000000c0: bdf3 0abb f663 76bc 9edd 8c3c 3f70 8ebb
000000d0: 01b3 82bc d2a8 733c c529 5f3b e80b 39bc
000000e0: f4fa 92bb 2dfb 21bb 7604 47bc 48a5 35bc
000000f0: d517 76bc 04c7 da3b a088 d23b 64b4 48bc
00000100: 9e44 2ebc cca3 e43b f776 813c 59b1 79bc
00000110: eb98 8cbc 4033 873c 8b52 423c adca 0bbc
00000120: 0024 ed3a fd8c 38bb b157 f3bb 5e42 1c3b
00000130: c079 85bc c707 00bc eba3 7f3c 3386 613a
00000140: 5358 2abc b0f5 733c 70e7 44bc 53e2 203a
00000150: d0df 623c 93f6 4dbc a767 eeb9 a232 dc3b
00000160: 1a51 053c e6b6 9e3b a069 e53b 7ed4 7fbc
00000170: 38dc 18bc 5899 873c 6549 443c 1cab cf3b
00000180: 6549 f93b 8eb7 813a b4f0 023c 0d3f 55bc
00000190: bba6 ce3a f853 2ebc e534 423c 6f26 b3bb
000001a0: 8a17 2ebc 4d92 843c 92ea 65b8 a022 b83b
000001b0: 943b 75ba 6843 bf3b a1ce 10bc b3bf c23b
000001c0: f090 02bb 4c36 453c 9e6e f93b 34f9 84bb
000001d0: 7e2d 363c 0d4a 253c a622 88bc 4823 28bc
000001e0: 05bf e0ba 41b8 1abc 2387 513c c42a 59bb
000001f0: c225 443c 09b9 233c d0e5 653c 8adc 473b
00000200: 2e93 9cbb be19 f83a 34b3 843c 0e6c 83bc
00000210: 9825 52bc e352 33bc 1845 683c 002a a3bb
00000220: eca6 3cbc 17e0 2fbc a4e8 993b 8cb8 313b
00000230: e075 283b a100 e3bb efa1 62bc 0e1a 01bc
00000240: dcfd 4e3c 7ffc 63bc c023 513b 497a 6d3b
00000250: 760a b53b b460 4abc 8f07 5fbc f482 5abc
00000260: 1776 8a3b ee07 26bc a89e 4a3c d230 2f3c
00000270: 2cad 843b 4215 083c 13e5 28bc f807 603c
00000280: 4fd6 853c ef59 05bc 7e0a 1c3c 63e7 59bc
00000290: 19f7 1cbc 9a56 71bc f4b2 d83b ad3a 83bc
000002a0: 54c9 abbb cddc 5bbb a00d 8c3b 72c7 55bc
000002b0: 2919 87bc 5e21 5d3c 74bc 13bc 4fa1 2c3c
000002c0: 0ac7 303b 6616 7cbb 0ebe 74bb 6cdb c2ba
000002d0: e729 daba a25d 233c c7ba 1b3c b806 72bc
000002e0: 07c2 8ebb 175d c3bb 1fd3 0d3a f04b 1c3b
000002f0: dfe6 043c 69c4 4abb 86bf ccbb 4945 1e3c
00000300: 10ba 22bc 4efe 4e3c dd5f f8bb 5e15 3aba
00000310: 259d 61bc 6963 e9bb 673d 803a e019 8fbb
00000320: aadd 6cbc 7ce0 78bc 6109 6d3a 9d7a 483a
00000330: 4815 f0bb dedf 8ebb 0e12 053c 7941 16bb
00000340: f9d3 85bb 42a7 523c 38b8 4bbc 8d53 d63b
00000350: 560e 8d3a 0401 1c3c 3b0d efbb 8cde 76bb
00000360: 33f4 28bc f7bd 573c 8af4 62b7 b5a3 7dbc
00000370: 9ef9 f6bb 0519 623c c0c4 8aba 3303 0cbc
00000380: 7a9d 0bbc 7986 0dbc e69b 41bc c604 a23b
00000390: 6852 2d3c bf68 4a3c 5b63 53bc 3195 8b3c
000003a0: d457 eabb fb63 f9bb c935 da3b 62d4 383c
000003b0: caff 99bb 996f b83a fd3e 25bb 9a7d fd3b
000003c0: c0c4 323c 2ef4 233c fbfa 703a 2fa0 703c
000003d0: 7b0b c1bb 56fa 95bb fea9 653c 60df d33b
000003e0: d843 443c 41ae efbb b9cd 543c 2888 503c
000003f0: 668a 683c 873b 77bc 7066 08ba 2a94 883c
0.013950642 0.0021417663 0.009823712 0.00061926246 -0.011561848 -0.011142338 -0.001099989 -0.00011601299
0.00745848 -0.004604306 -0.0042470014 0.0077250227 0.013114756 -0.0019359076 -0.010930993 0.008408521
-0.010437357 0.0026425954 -0.0063580135 0.0039809737 -0.008751686 -0.008115738 0.00070779957 -0.0061126132
0.016119307 0.0134774055 -0.0099844 -0.016667651 0.0045282054 -0.002736888 -0.013143893 -0.0029400596
-0.009203476 -0.014860858 0.014148893 -0.009330795 -0.005312411 0.0059565683 0.009949668 -0.015108604
-0.009499904 0.009717231 -0.01615086 -0.0075191054 -0.009515978 0.011878906 -0.013739104 -0.0141981775
-0.0021202408 -0.015038481 0.017195519 -0.004346877 -0.015954496 0.014871793 0.0034051996 -0.011294343
-0.0044854823 -0.0024716363 -0.01214706 -0.011086769 -0.01502033 0.0066765565 0.0064249784 -0.01225004
-0.010636477 0.006977534 0.015803797 -0.015240037 -0.01716276 0.01650393 0.0118605 -0.008532208
0.0018092394 -0.0028160207 -0.007426225 0.002384327 -0.016293406 -0.007814354 0.015603046 0.0008603066
-0.010397035 0.014890119 -0.01201807 0.00061372406 0.013847306 -0.012570995 -0.00045472124 0.006719903
0.008137012 0.0048435805 0.007001117 -0.015614627 -0.009329848 0.016552612 0.011980389 0.0063375365
0.0076076263 0.0009896623 0.007991958 -0.013015521 0.0015766242 -0.010640137 0.011853431 -0.005467228
-0.010625729 0.016183043 -5.4816315e-05 0.005619362 -0.0009354886 0.005836893 -0.008838327 0.0059432625
-0.0019922815 0.012036871 0.0076120635 -0.0040580276 0.011119245 0.010088456 -0.016618084 -0.010262318
-0.0017146772 -0.009443344 0.012788567 -0.0033137063 0.011971893 0.009992846 0.014031842 0.0030496442
-0.0047782874 0.001892857 0.016198732 -0.016042735 -0.012826346 -0.010945055 0.0141766295 -0.004979372
-0.011514407 -0.0107345795 0.0046969224 0.0027118055 0.0025705025 -0.006927565 -0.013832553 -0.007879747
0.012633767 -0.01391518 0.0031912178 0.0036236218 0.0055249287 -0.012352157 -0.013612642 -0.013336886
0.004225503 -0.0101337265 0.012366928 0.010692792 0.004048964 0.0083058495 -0.010308522 0.013673775
0.016337542 -0.008139118 0.009523986 -0.013299796 -0.009580397 -0.01473012 0.0066131297 -0.01601919
-0.005242506 -0.0033548356 0.004274085 -0.01304804 -0.01649149 0.013496725 -0.009017099 0.010536506
0.0026974105 -0.00384655 -0.0037344727 -0.0014866418 -0.0016644568 0.009971054 0.00950498 -0.01477211
-0.004356626 -0.005962025 0.00054101826 0.0023848973 0.008111685 -0.0030939823 -0.0062484173 0.009660074
-0.009932056 0.012633873 -0.007579787 -0.0007098521 -0.013770376 -0.0071224463 0.0009783924 -0.004367098
-0.014457146 -0.01519024 0.000904223 0.00076476653 -0.0073267557 -0.004360183 0.00812198 -0.0022927208
-0.004084107 0.01285726 -0.012434058 0.0065407217 0.0010761719 0.0095217265 -0.0072952784 -0.003766927
-0.010312128 0.01316785 -1.3527586e-05 -0.015480925 -0.007537081 0.01379991 -0.00105872 -0.008545685
-0.008521432 -0.008638018 -0.011816954 0.0049444167 0.010578729 0.012354075 -0.012902106 0.017038913
-0.007151583 -0.0076107956 0.0066592437 0.011281105 -0.004699682 0.0014071345 -0.0025214546 0.00773592
0.010911167 0.010006947 0.00091926724 0.014686628 -0.005891261 -0.0045769615 0.01401758 0.0064658374
0.011979066 -0.007314474 0.012988501 0.012727775 0.014193153 -0.015089876 -0.00052032527 0.016672213

fc1.bias f4 [50]
00000000: a7a5 583a 0dff f3bb 483f 3abc ad4a 643b
00000010: 1820 1b3c c9e9 843c 1d26 dc3c 6d04 6abc
00000020: e6a5 e43b 71b1 923b 2d32 00bb 101d 983a
00000030: e98e 18bd 02e4 3cbb 3c20 a3ba 041a 1abc
00000040: 21ff e13c c230 fbba 90b9 86bb ebcc 3e3d
00000050: 892d 393c 7f03 43ba 5951 17bc d265 58bb
00000060: 75c8 b5bb 8cc9 71bc 1d87 3cbc a983 8f3c
00000070: b638 13bd 133a afbc c0ab 23bc f464 7ebc
00000080: 1ac8 cfbb 4c57 53bc a302 19bc 9112 b33b
00000090: 4877 383d e4d6 2c3c 5c2d 4b3b 49ab 47bc
000000a0: f5c2 da3c 0fd0 613b 7392 48bc 1bd9 cebc
000000b0: 5a93 08bd 8c5b 21bb a2c9 a6bb 9812 c63b
000000c0: 5a32 653c 5f2b 703b
0.000826443 -0.007446176 -0.0113676265 0.003483455 0.009468101 0.016224759 0.026873643 -0.014283282
0.0069777844 0.004476719 -0.0019561157 0.0011605341 -0.037245665 -0.0028822427 -0.001244552 -0.009405617
0.027587475 -0.0019164311 -0.0041114762 0.046582144 0.01130236 -0.00074391806 -0.009235703 -0.0033019674
-0.005547578 -0.014757525 -0.011506823 0.017518835 -0.035942756 -0.021389997 -0.009989679 -0.015526999
-0.0063409926 -0.012899231 -0.009339008 0.00546486 0.04503563 0.010549281 0.0031002378 -0.012186834
0.02670429 0.0034456288 -0.012241947 -0.025250008 -0.03334365 -0.0024621217 -0.0050899545 0.006044697
0.0139890555 0.0036646945

fc2.weight f4 [2, 50]
00000000: e4ea 36bc 460e d23d bbb2 fe3d f932 08b8
00000010: 365f a0bd a888 0bbe 0a4f 22be 7ad5 053e
00000020: 08fd afbd b476 fd3d 6b0f 72bd f06d 353c
00000030: 923d 543e bf9c 2abd 6ff3 463d a33f a63d
00000040: 43c9 57be 2b58 b53d 9cd3 1abd 161f 61be
00000050: 7cc9 d3bd dbf1 29be 6ccd dd3d 6a0d d4bb
00000060: 0fcc 0e3e 5c81 0bbe 80f8 3e3e 67c4 0cbe
00000070: b87b f73d 4d1c 183e ac2b 193d e3d5 afbd
00000080: 4618 c13c c045 4b3c 149c e4bc 687e e03c
00000090: 50f5 54be c725 e93d cf80 dabd dfdc a33d
000000a0: 1514 c9bd 5104 61bd d365 e13d 6ba5 053e
000000b0: 2868 333e f640 bb3d fe6b cb3d 571c bfbd
000000c0: d186 f5bd b54b a23d dd77 e1bd cb23 febd
000000d0: 2f2c dbbd 2612 dbbd 0c55 08bd 6f67 7cbd
000000e0: ecac 1f3e 8c27 b6bd 91b3 7d3d d7f5 bc3d
000000f0: a161 12bd 50ab 5cbc 2072 39be cd1a a63d
00000100: 1d55 dabd 7cac 34bd 7f27 213e d6c3 f5bd
00000110: ce41 77bd 8a7f 413e 1f2f 263e 6163 f93b
00000120: c8d3 34be afd6 893d 838e af3d 74b9 7a3d
00000130: 3b4d 56be 1ca8 de3d 5a6e 2ebe ae87 e0bd
00000140: 0462 8abd 012c ec3d 7f0c e13d 9c9c 7a3d
00000150: 4d27 f23d 93a5 e0bd 6018 1a3e 7744 47bd
00000160: bf93 74bd e429 f8bd aa45 233e a7bc fabc
00000170: 86ef fd3c de2d 04be 8a31 d6bd fca4 973d
00000180: 65eb 8c3b 23e0 b5bd 9de5 0bbd 1060 9f3d
-0.011164401 0.10256629 0.12436434 -3.24724e-05 -0.0783066 -0.13626349 -0.15850464 0.13069716
-0.08593184 0.123761564 -0.059096735 0.011073574 0.20726612 -0.04165339 0.048572 0.081176065
-0.21072869 0.08854707 -0.037799463 -0.21984515 -0.103411645 -0.16596167 0.10830197 -0.0064713256
0.1394503 -0.13623565 0.18649483 -0.13746797 0.12084144 0.14854546 0.037395164 -0.085857175
0.023571145 0.012406766 -0.027906455 0.027404025 -0.20796704 0.113841586 -0.106690995 0.08001112
-0.098182835 -0.054935757 0.110057496 0.13051383 0.17520201 0.0914325 0.09932707 -0.09331577
-0.11988605 0.07924596 -0.1100919 -0.12409171 -0.10701787 -0.10696821 -0.033284232 -0.06162208
0.15593308 -0.08894262 0.061938826 0.09226578 -0.035737637 -0.013468578 -0.18109941 0.081105806
-0.10660765 -0.044109806 0.15737723 -0.12000243 -0.06036549 0.18896309 0.16228913 0.007610724
-0.17658913 0.06730401 0.08572104 0.061212018 -0.20927899 0.10871908 -0.17034283 -0.10963379
-0.06756976 0.115318306 0.109887116 0.06118451 0.11823902 -0.10969081 0.15048361 -0.048649278
-0.059711214 -0.12117365 0.15944543 -0.030607535 0.030998003 -0.12908122 -0.104586676 0.07404515
0.004300522 -0.08880641 -0.034154523 0.07781994

fc2.bias f4 [2]
00000000: 46b9 31be c8fa 753e
-0.17355832 0.24021447
